…
            "10/28 04:13:13 PM | LR_DECAY_STEP=5,10\n",
            "10/28 04:13:13 PM | RESUME=./result/densenet_40/pruned_checkpoint/densenet_40_cov1.pt\n",
            "10/28 04:13:13 PM | RESUME_MASK=None\n",
            "10/28 04:13:13 PM | START_COV=0\n",
            "10/28 04:13:13 PM | TRAIN_BATCH_SIZE=128\n",
            "10/28 04:13:13 PM | \n",
            "10/28 04:13:13 PM | ==> Preparing data..\n",
            "Files already downloaded and verified\n",
            "Files already downloaded and verified\n",
            "10/28 04:13:14 PM | ==> Building model..\n",
            "DenseNet(\n",
            "  (conv1): Conv2d(3, 24, kernel_size=(3, 3), stride=(1, 1), padding=(1, 1), bias=False)\n",
            "  (dense1): Sequential(\n",
            "    (0): DenseBasicBlock(\n",
            "      (bn1): BatchNorm2d(24, eps=1e-05, momentum=0.1, affine=True, track_running_stats=True)\n",
            "      (relu): ReLU(inplace=True)\n",
            "      (conv1): Conv2d(24, 12, kernel_size=(3, 3), stride=(1, 1), padding=(1, 1), bias=False)\n",
            "    )\n",
            "    (1): DenseBasicBlock(\n",
            "      (bn1): BatchNorm2d(36, eps=1e-05, momentum=0.1, affine=True, track_running_stats=True)\n",
            "      (relu): ReLU(inplace=True)\n",
            "      (conv1): Conv2d(36, 12, kernel_size=(3, 3), stride=(1, 1), padding=(1, 1), bias=False)\n",
            "    )\n",
            "    (2): DenseBasicBlock(\n",
            "      (bn1): BatchNorm2d(48, eps=1e-05, momentum=0.1, affine=True, track_running_stats=True)\n",
            "      (relu): ReLU(inplace=True)\n",
            "      (conv1): Conv2d(48, 12, kernel_size=(3, 3), stride=(1, 1), padding=(1, 1), bias=False)\n",
            "    )\n",
            "    (3): DenseBasicBlock(\n",
            "      (bn1): BatchNorm2d(60, eps=1e-05, momentum=0.1, affine=True, track_running_stats=True)\n",
            "      (relu): ReLU(inplace=True)\n",
            "      (conv1): Conv2d(60, 12, kernel_size=(3, 3), stride=(1, 1), padding=(1, 1), bias=False)\n",
            "    )\n",
            "    (4): DenseBasicBlock(\n",
            "      (bn1): BatchNorm2d(72, eps=1e-05, momentum=0.1, affine=True, track_running_stats=True)\n",
            "      (relu): ReLU(inplace=True)\n",
            "      (conv1): Conv2d(72, 12, kernel_size=(3, 3), stride=(1, 1), padding=(1, 1), bias=False)\n",
            "    )\n",
            "    (5): DenseBasicBlock(\n",
            "      (bn1): BatchNorm2d(84, eps=1e-05, momentum=0.1, affine=True, track_running_stats=True)\n",
            "      (relu): ReLU(inplace=True)\n",
            "      (conv1): Conv2d(84, 12, kernel_size=(3, 3), stride=(1, 1), padding=(1, 1), bias=False)\n",
            "    )\n",
            "    (6): DenseBasicBlock(\n",
            "      (bn1): BatchNorm2d(96, eps=1e-05, momentum=0.1, affine=True, track_running_stats=True)\n",
            "      (relu): ReLU(inplace=True)\n",
            "      (conv1): Conv2d(96, 12, kernel_size=(3, 3), stride=(1, 1), padding=(1, 1), bias=False)\n",
            "    )\n",
            "    (7): DenseBasicBlock(\n",
            "      (bn1): BatchNorm2d(108, eps=1e-05, momentum=0.1, affine=True, track_running_stats=True)\n",
            "      (relu): ReLU(inplace=True)\n",
            "      (conv1): Conv2d(108, 12, kernel_size=(3, 3), stride=(1, 1), padding=(1, 1), bias=False)\n",
            "    )\n",
            "    (8): DenseBasicBlock(\n",
            "      (bn1): BatchNorm2d(120, eps=1e-05, momentum=0.1, affine=True, track_running_stats=True)\n",
            "      (relu): ReLU(inplace=True)\n",
            "      (conv1): Conv2d(120, 12, kernel_size=(3, 3), stride=(1, 1), padding=(1, 1), bias=False)\n",
            "    )\n",
            "    (9): DenseBasicBlock(\n",
            "      (bn1): BatchNorm2d(132, eps=1e-05, momentum=0.1, affine=True, track_running_stats=True)\n",
            "      (relu): ReLU(inplace=True)\n",
            "      (conv1): Conv2d(132, 12, kernel_size=(3, 3), stride=(1, 1), padding=(1, 1), bias=False)\n",
            "    )\n",
            "    (10): DenseBasicBlock(\n",
            "      (bn1): BatchNorm2d(144, eps=1e-05, momentum=0.1, affine=True, track_running_stats=True)\n",
            "      (relu): ReLU(inplace=True)\n",
            "      (conv1): Conv2d(144, 12, kernel_size=(3, 3), stride=(1, 1), padding=(1, 1), bias=False)\n",
            "    )\n",
            "    (11): DenseBasicBlock(\n",
            "      (bn1): BatchNorm2d(156, eps=1e-05, momentum=0.1, affine=True, track_running_stats=True)\n",
            "      (relu): ReLU(inplace=True)\n",
            "      (conv1): Conv2d(156, 12, kernel_size=(3, 3), stride=(1, 1), padding=(1, 1), bias=False)\n",
            "    )\n",
            "  )\n",
            "  (trans1): Transition(\n",
            "    (bn1): BatchNorm2d(168, eps=1e-05, momentum=0.1, affine=True, track_running_stats=True)\n",
            "    (relu): ReLU(inplace=True)\n",
            "    (conv1): Conv2d(168, 168, kernel_size=(1, 1), stride=(1, 1), bias=False)\n",
            "  )\n",
            "  (dense2): Sequential(\n",
            "    (0): DenseBasicBlock(\n",
            "      (bn1): BatchNorm2d(168, eps=1e-05, momentum=0.1, affine=True, track_running_stats=True)\n",
            "      (relu): ReLU(inplace=True)\n",
            "      (conv1): Conv2d(168, 12, kernel_size=(3, 3), stride=(1, 1), padding=(1, 1), bias=False)\n",
            "    )\n",
            "    (1): DenseBasicBlock(\n",
            "      (bn1): BatchNorm2d(180, eps=1e-05, momentum=0.1, affine=True, track_running_stats=True)\n",
            "      (relu): ReLU(inplace=True)\n",
            "      (conv1): Conv2d(180, 12, kernel_size=(3, 3), stride=(1, 1), padding=(1, 1), bias=False)\n",
            "    )\n",
            "    (2): DenseBasicBlock(\n",
            "      (bn1): BatchNorm2d(192, eps=1e-05, momentum=0.1, affine=True, track_running_stats=True)\n",
            "      (relu): ReLU(inplace=True)\n",
            "      (conv1): Conv2d(192, 12, kernel_size=(3, 3), stride=(1, 1), padding=(1, 1), bias=False)\n",
            "    )\n",
            "    (3): DenseBasicBlock(\n",
            "      (bn1): BatchNorm2d(204, eps=1e-05, momentum=0.1, affine=True, track_running_stats=True)\n",
            "      (relu): ReLU(inplace=True)\n",
            "      (conv1): Conv2d(204, 12, kernel_size=(3, 3), stride=(1, 1), padding=(1, 1), bias=False)\n",
            "    )\n",
            "    (4): DenseBasicBlock(\n",
            "      (bn1): BatchNorm2d(216, eps=1e-05, momentum=0.1, affine=True, track_running_stats=True)\n",
            "      (relu): ReLU(inplace=True)\n",
            "      (conv1): Conv2d(216, 12, kernel_size=(3, 3), stride=(1, 1), padding=(1, 1), bias=False)\n",
            "    )\n",
            "    (5): DenseBasicBlock(\n",
            "      (bn1): BatchNorm2d(228, eps=1e-05, momentum=0.1, affine=True, track_running_stats=True)\n",
            "      (relu): ReLU(inplace=True)\n",
            "      (conv1): Conv2d(228, 12, kernel_size=(3, 3), stride=(1, 1), padding=(1, 1), bias=False)\n",
            "    )\n",
            "    (6): DenseBasicBlock(\n",
            "      (bn1): BatchNorm2d(240, eps=1e-05, momentum=0.1, affine=True, track_running_stats=True)\n",
            "      (relu): ReLU(inplace=True)\n",
            "      (conv1): Conv2d(240, 12, kernel_size=(3, 3), stride=(1, 1), padding=(1, 1), bias=False)\n",
            "    )\n",
            "    (7): DenseBasicBlock(\n",
            "      (bn1): BatchNorm2d(252, eps=1e-05, momentum=0.1, affine=True, track_running_stats=True)\n",
            "      (relu): ReLU(inplace=True)\n",
            "      (conv1): Conv2d(252, 12, kernel_size=(3, 3), stride=(1, 1), padding=(1, 1), bias=False)\n",
            "    )\n",
            "    (8): DenseBasicBlock(\n",
            "      (bn1): BatchNorm2d(264, eps=1e-05, momentum=0.1, affine=True, track_running_stats=True)\n",
            "      (relu): ReLU(inplace=True)\n",
            "      (conv1): Conv2d(264, 12, kernel_size=(3, 3), stride=(1, 1), padding=(1, 1), bias=False)\n",
            "    )\n",
            "    (9): DenseBasicBlock(\n",
            "      (bn1): BatchNorm2d(276, eps=1e-05, momentum=0.1, affine=True, track_running_stats=True)\n",
            "      (relu): ReLU(inplace=True)\n",
            "      (conv1): Conv2d(276, 12, kernel_size=(3, 3), stride=(1, 1), padding=(1, 1), bias=False)\n",
            "    )\n",
            "    (10): DenseBasicBlock(\n",
            "      (bn1): BatchNorm2d(288, eps=1e-05, momentum=0.1, affine=True, track_running_stats=True)\n",
            "      (relu): ReLU(inplace=True)\n",
            "      (conv1): Conv2d(288, 12, kernel_size=(3, 3), stride=(1, 1), padding=(1, 1), bias=False)\n",
            "    )\n",
            "    (11): DenseBasicBlock(\n",
            "      (bn1): BatchNorm2d(300, eps=1e-05, momentum=0.1, affine=True, track_running_stats=True)\n",
            "      (relu): ReLU(inplace=True)\n",
            "      (conv1): Conv2d(300, 12, kernel_size=(3, 3), stride=(1, 1), padding=(1, 1), bias=False)\n",
            "    )\n",
            "  )\n",
            "  (trans2): Transition(\n",
            "    (bn1): BatchNorm2d(312, eps=1e-05, momentum=0.1, affine=True, track_running_stats=True)\n",
            "    (relu): ReLU(inplace=True)\n",
            "    (conv1): Conv2d(312, 312, kernel_size=(1, 1), stride=(1, 1), bias=False)\n",
            "  )\n",
            "  (dense3): Sequential(\n",
            "    (0): DenseBasicBlock(\n",
            "      (bn1): BatchNorm2d(312, eps=1e-05, momentum=0.1, affine=True, track_running_stats=True)\n",
            "      (relu): ReLU(inplace=True)\n",
            "      (conv1): Conv2d(312, 12, kernel_size=(3, 3), stride=(1, 1), padding=(1, 1), bias=False)\n",
            "    )\n",
            "    (1): DenseBasicBlock(\n",
            "      (bn1): BatchNorm2d(324, eps=1e-05, momentum=0.1, affine=True, track_running_stats=True)\n",
            "      (relu): ReLU(inplace=True)\n",
            "      (conv1): Conv2d(324, 12, kernel_size=(3, 3), stride=(1, 1), padding=(1, 1), bias=False)\n",
            "    )\n",
            "    (2): DenseBasicBlock(\n",
            "      (bn1): BatchNorm2d(336, eps=1e-05, momentum=0.1, affine=True, track_running_stats=True)\n",
            "      (relu): ReLU(inplace=True)\n",
            "      (conv1): Conv2d(336, 12, kernel_size=(3, 3), stride=(1, 1), padding=(1, 1), bias=False)\n",
            "    )\n",
            "    (3): DenseBasicBlock(\n",
            "      (bn1): BatchNorm2d(348, eps=1e-05, momentum=0.1, affine=True, track_running_stats=True)\n",
            "      (relu): ReLU(inplace=True)\n",
            "      (conv1): Conv2d(348, 12, kernel_size=(3, 3), stride=(1, 1), padding=(1, 1), bias=False)\n",
            "    )\n",
            "    (4): DenseBasicBlock(\n",
            "      (bn1): BatchNorm2d(360, eps=1e-05, momentum=0.1, affine=True, track_running_stats=True)\n",
            "      (relu): ReLU(inplace=True)\n",
            "      (conv1): Conv2d(360, 12, kernel_size=(3, 3), stride=(1, 1), padding=(1, 1), bias=False)\n",
            "    )\n",
            "    (5): DenseBasicBlock(\n",
            "      (bn1): BatchNorm2d(372, eps=1e-05, momentum=0.1, affine=True, track_running_stats=True)\n",
            "      (relu): ReLU(inplace=True)\n",
            "      (conv1): Conv2d(372, 12, kernel_size=(3, 3), stride=(1, 1), padding=(1, 1), bias=False)\n",
            "    )\n",
            "    (6): DenseBasicBlock(\n",
            "      (bn1): BatchNorm2d(384, eps=1e-05, momentum=0.1, affine=True, track_running_stats=True)\n",
            "      (relu): ReLU(inplace=True)\n",
            "      (conv1): Conv2d(384, 12, kernel_size=(3, 3), stride=(1, 1), padding=(1, 1), bias=False)\n",
            "    )\n",
            "    (7): DenseBasicBlock(\n",
            "      (bn1): BatchNorm2d(396, eps=1e-05, momentum=0.1, affine=True, track_running_stats=True)\n",
            "      (relu): ReLU(inplace=True)\n",
            "      (conv1): Conv2d(396, 12, kernel_size=(3, 3), stride=(1, 1), padding=(1, 1), bias=False)\n",
            "    )\n",
            "    (8): DenseBasicBlock(\n",
            "      (bn1): BatchNorm2d(408, eps=1e-05, momentum=0.1, affine=True, track_running_stats=True)\n",
            "      (relu): ReLU(inplace=True)\n",
            "      (conv1): Conv2d(408, 12, kernel_size=(3, 3), stride=(1, 1), padding=(1, 1), bias=False)\n",
            "    )\n",
            "    (9): DenseBasicBlock(\n",
            "      (bn1): BatchNorm2d(420, eps=1e-05, momentum=0.1, affine=True, track_running_stats=True)\n",
            "      (relu): ReLU(inplace=True)\n",
            "      (conv1): Conv2d(420, 12, kernel_size=(3, 3), stride=(1, 1), padding=(1, 1), bias=False)\n",
            "    )\n",
            "    (10): DenseBasicBlock(\n",
            "      (bn1): BatchNorm2d(432, eps=1e-05, momentum=0.1, affine=True, track_running_stats=True)\n",
            "      (relu): ReLU(inplace=True)\n",
            "      (conv1): Conv2d(432, 12, kernel_size=(3, 3), stride=(1, 1), padding=(1, 1), bias=False)\n",
            "    )\n",
            "    (11): DenseBasicBlock(\n",
            "      (bn1): BatchNorm2d(444, eps=1e-05, momentum=0.1, affine=True, track_running_stats=True)\n",
            "      (relu): ReLU(inplace=True)\n",
            "      (conv1): Conv2d(444, 12, kernel_size=(3, 3), stride=(1, 1), padding=(1, 1), bias=False)\n",
            "    )\n",
            "  )\n",
            "  (bn): BatchNorm2d(456, eps=1e-05, momentum=0.1, affine=True, track_running_stats=True)\n",
            "  (relu): ReLU(inplace=True)\n",
            "  (avgpool): AvgPool2d(kernel_size=8, stride=8, padding=0)\n",
            "  (fc): Linear(in_features=456, out_features=10, bias=True)\n",
            ")\n",
            "10/28 04:13:18 PM | compress rate: [… \n",
            "10/28 04:13:18 PM | cov-id: 0 ====> Resuming from pruned_checkpoint...\n",
            "10/28 04:13:18 PM | \n",
            "Epoch: 0\n",
            " [================================================================>]  Step: 1s508ms | Tot: 1m28s | Cov: 1 | Loss: 0.851 | Acc: 70.070% (35035/50000) 391/391 \n",
…
